…
 'show_individual_scores': False,
 'smiles_columns': ['smiles'],
 'split_sizes': (0.8, 0.1, 0.1),
 'split_type': 'random',
 'target_columns': ['label'],
 'target_weights': None,
 'task_names': ['label'],
 'tau': (0.0, 5.0),
 'test': False,
 'test_fold_index': None,
 'train_data_size': None,
 'undirected': False,
 'use_input_features': False,
 'val_fold_index': None,
 'vocab_size': 31,
 'warmup_epochs': 2.0}
Loading data
Number of tasks = 1
Fold 0
Splitting data with seed 0
Total size = 5 | train size = 5 | val size = 4 | test size = 4
Fitting scaler
Building model 0
InteractionModel(
  (embedding_xt): Embedding(31, 128)
  (conv_in): Conv1d(500, 64, kernel_size=(1,), stride=(1,))
  (convs): ModuleList(
    (0): Conv1d(128, 256, kernel_size=(7,), stride=(1,), padding=(3,))
    (1): Conv1d(128, 256, kernel_size=(7,), stride=(1,), padding=(3,))
    (2): Conv1d(128, 256, kernel_size=(7,), stride=(1,), padding=(3,))
  )
  (rnns): ModuleList(
    (0): GRU(64, 64, batch_first=True, bidirectional=True)
    (1): GRU(64, 64, batch_first=True, bidirectional=True)
    (2): GRU(64, 64, batch_first=True, bidirectional=True)
  )
  (fc1_xt): Linear(in_features=8192, out_features=300, bias=True)
  (fc_mg): Linear(in_features=2048, out_features=300, bias=True)
  (fc_residual_connection): Linear(in_features=128, out_features=64, bias=True)
  (relu): ReLU()
  (norm): LayerNorm((64,), eps=1e-05, elementwise_affine=True)
  (do): Dropout(p=0.1, inplace=False)
  (CAB): CrossAttentionBlock(
    (att): AttentionBlock(
      (f_q): Linear(in_features=300, out_features=300, bias=True)
      (f_k): Linear(in_features=300, out_features=300, bias=True)
      (f_v): Linear(in_features=300, out_features=300, bias=True)
      (fc): Linear(in_features=300, out_features=300, bias=True)
      (do): Dropout(p=0.1, inplace=False)
    )
  )
  (encoder): MPN(
    (encoder): ModuleList(
      (0): MPNEncoder(
        (dropout_layer): Dropout(p=0.1, inplace=False)
        (act_func): ReLU()
        (W_i): Linear(in_features=147, out_features=300, bias=False)
        (W_h): Linear(in_features=300, out_features=300, bias=False)
        (W_o): Linear(in_features=433, out_features=300, bias=True)
      )
    )
  )
  (ffn): Sequential(
    (0): Dropout(p=0.1, inplace=False)
    (1): Linear(in_features=300, out_features=300, bias=True)
    (2): ReLU()
    (3): Dropout(p=0.1, inplace=False)
    (4): Linear(in_features=300, out_features=1, bias=True)
  )
)
Number of parameters = 4,672,073
Moving model to cuda
Epoch 0
Validation mse = 24.699904
Epoch 1
Validation mse = 22.534409
Epoch 2
Validation mse = 16.866505
Epoch 3
Validation mse = 7.737882
Epoch 4
Validation mse = 0.207668
Epoch 5
Validation mse = 0.390368
Epoch 6
Validation mse = 0.139902
Epoch 7
Validation mse = 0.685889
Epoch 8
Validation mse = 1.374685
…
